wandbcsv/ant_legweight_train.npz (npz, 8470 bytes, 2 tensors)

x_diff f8 [1, 500]
0.5251356490463858 0.8246397908484848 2.949348850982943 0.37326853221010436 -0.2055143718441231 -1.0459420189084039 0.9591579112501959 0.5163221633847569
-0.5663752645829135 0.5376042239437201 1.013270357206381 -0.0001229551302073884 -0.4886728513055267 0.038472396831924424 0.6837864323570837 0.5676703569676863
1.189514340278856 -0.9252797361565492 -0.18352870235933716 0.49487311256583066 0.5110133784749082 0.6679845451277372 0.4651542664466699 -0.22598412319426436
-0.3182742543802137 0.3262234896410283 2.865514228299881 0.1477875823964679 0.05634503159090322 1.2766855456714696 1.2481270399762872 1.2339097269937382
2.910225184225331 -2.383604337800286 0.39328980214578635 -0.290435909439434 1.0175536514901886 1.0336527461451916 0.8553054959080176 -0.21207053413077306
2.5391099092627814 0.4966630889779692 0.6156113029916815 -0.42780591175160526 0.708858479357842 -0.5419977356138979 -0.16140925618447038 0.5297714878781579
0.3595201276053593 0.8008038191961092 0.42666765519825717 -0.107528778633922 -0.1121792857887788 -0.6195248871876218 1.0457718237447264 1.554475271554351
0.38874511020781266 0.35450970495940504 0.7628980894477638 -0.0566129190694537 0.3493260502567496 1.1933209601027595 0.03267489466193903 0.5523707833984262
0.06126772157450003 0.19662236764973226 -0.45169581619878846 0.4291435656053703 0.5025054417529169 0.9314834962009163 0.145923757453117 0.4978192332947167
0.12966429454696937 -0.04450064150991786 0.5386235936411218 -0.31235545582486945 0.4484112273645232 0.6069147996189616 0.04402905417241143 0.856485855828232
0.4597550113728358 1.0816026465083606 0.3827362624548138 1.0264877106689068 0.9045067467909729 0.7660356424375887 0.38569616891581054 0.737924073526987
1.1057432620984258 1.024612343095043 0.2416741092719745 0.4271676849499987 1.2121107876373718 0.4596127500985365 1.528878249690427 0.2222561205785868
-0.1098563711362581 3.2507631492731854 0.6014096401875183 -0.4198476477931759 1.176022329327491 0.5336829503727512 0.8151057986283995 0.8684152693547587
0.6384886737089891 0.8295587199155665 0.8388009043573612 0.829923767962153 3.3370901248154383 0.9347712638791695 0.8742195530602752 0.3741269279140922
1.015580543113451 0.5384384540249509 1.259485078937767 1.004634366378484 0.2743125750905895 0.3130538295418226 0.06937109304357991 0.723354182019111
0.8649135878378426 1.3115970235076186 0.7757610887823669 0.8920833346446156 0.6260183505392284 0.5927509862053305 1.0574251900316063 0.983118963207406
0.318496590620959 0.8657349332329389 0.47238581447235484 0.6131252151163853 1.4759257726753652 -0.005903876877345727 1.3210456494587643 0.5005174158582315
1.2104990824556543 0.5233701595155055 0.68264299079407 0.6249152729221104 0.922455081556583 0.827678885913074 0.4404016340312706 0.9395897571593413
0.44135964755250146 0.7245666550190785 0.028777026354618325 1.2500964976734166 1.4066935711128334 1.260901783572014 0.6065986577358076 0.7965318193874981
0.6910594779222805 0.5362164901671623 1.1932941603681089 0.2741170919141371 0.4267275696290488 0.6388627119429857 0.8420925284914361 0.6188442600615183
0.8994436221446309 1.384631949386718 1.710320535622067 0.7845839531815744 1.4338909970447322 2.1430330496901613 0.7504559908461191 0.8292602876805221
0.9631147946679453 0.4489779946713387 0.6639657702742044 0.9871689403543159 0.010220351973526252 1.4820210612793865 0.13106462021641224 0.48940185259941327
4.389028774815086 2.323818405127506 0.6959901291512234 1.1237890450080994 0.8509063712661882 0.8973288174837069 1.317387016134692 0.8440833800477765
0.4724335619260267 0.5365315841469238 0.7459590843958984 1.2037938973340423 0.639908747472088 1.064540461972922 1.2897955216348782 0.9221869985675475
0.9511733882064469 1.0105493373137524 0.875210534359662 0.9103863033674294 1.1924875194309488 0.954811757411554 0.24407186873662542 1.0460880470360927
0.6991732653431668 0.8777326359878482 0.6990019584351717 0.4993241385331239 0.378369884588852 1.4216527804216896 0.6659541107837197 0.7608522127518852
1.2604384198873482 1.4243792960981838 0.8711099391521643 0.273930447433717 0.9669458108249178 0.5557870822938349 0.8598866290455894 0.41014128709615555
1.2719687667006545 0.8309867733479617 0.46869810865579586 0.6728325648810549 0.8736384178454384 0.6797659415625696 0.6709840049390835 1.0242824379258968
0.08572072170743637 0.7219078141924438 0.4742134969184525 0.60040316753519 0.38805250076070136 0.8900837116281233 0.994247994762081 1.0141983489379602
0.8407258617892795 0.7091652376851196 0.18598686496821207 0.6026742191437096 1.0218944402426597 0.7981333881827658 3.439857788716377 2.239305452263751
0.86561799561426 0.028673240914296044 0.7321675353566697 0.9585239017911447 0.9457002806443076 0.6267076387655042 0.6543232507448785 1.0342448414358951
1.274479030872308 0.7573970415213698 0.9574580401473689 1.1796755875078853 0.8748620369183635 3.404113374447248 0.7888545871497772 0.7747873013757722
00000000: 55c6 d346 e9cd e03f b095 95fc 7263 ea3f
00000010: 3fbc db35 4498 0740 f8f8 9db2 a1e3 d73f
00000020: d3d8 f680 4b4e cabf b894 cbb2 2dbc f0bf
00000030: cb9d 90ee 6bb1 ee3f ffff bd0e b685 e03f
00000040: e7b3 d404 bf1f e2bf 9df3 00c6 0d34 e13f
00000050: 8352 63fa 5a36 f03f 2029 b786 b01d 20bf
00000060: 3f38 b37e 6a46 dfbf 163a 626c a7b2 a33f
00000070: 9682 8d15 94e1 e53f 29b7 4206 5b2a e23f
00000080: 65ee 5930 4008 f33f 5434 ce3f e49b edbf
00000090: ac5d 4157 de7d c7bf 42f5 8846 00ac df3f
000000a0: 4ec8 8bba 385a e03f 7fd3 f11f 2160 e53f
000000b0: acee 7e66 16c5 dd3f ca6d 4439 0ced ccbf
000000c0: 0332 6efa 9a5e d4bf 587e cc7c d8e0 d43f
000000d0: 532a 46b9 92ec 0640 fae8 9218 b4ea c23f
000000e0: 5235 f387 41d9 ac3f 41f5 9ed2 4d6d f43f
000000f0: 1739 1f0f 54f8 f33f 6678 3a20 18be f33f
00000100: 6df2 3124 2448 0740 d1a5 ab26 9f11 03c0
00000110: ee40 84fd a82b d93f b816 287f 8096 d2bf
00000120: 3d36 7156 e647 f03f b7d3 4176 d789 f03f
00000130: ab72 a0a1 a95e eb3f ddb9 4494 2025 cbbf
00000140: 8add 29db 1850 0440 169b 12fb 53c9 df3f
00000150: 05b6 ac79 16b3 e33f 038d 000c 2c61 dbbf
00000160: f3b1 4afa f7ae e63f c6f7 9ea2 0b58 e1bf
00000170: 0ec0 4afa 0ea9 c4bf 4247 d955 e3f3 e03f
00000180: a566 94b5 6002 d73f a7b1 be54 2fa0 e93f
00000190: e999 55da 854e db3f 7b8c 9c8b 0187 bbbf
000001a0: 895e c01b c8b7 bcbf f4ec 30db 25d3 e3bf
000001b0: 72fd 603c 7bbb f03f 3a44 5c76 21df f83f
000001c0: 5ea3 b42b 33e1 d83f 8493 3a79 49b0 d63f
000001d0: 297d 0b41 a969 e83f 7769 de57 5efc acbf
000001e0: 0397 5fa6 5b5b d63f de5c 14b8 d717 f33f
000001f0: da50 f287 c3ba a03f dac9 3e7e 05ad e13f
00000200: b402 ed98 7b5e af3f 37dd 5bf7 eb2a c93f
00000210: af15 9491 95e8 dcbf df16 e492 1677 db3f
00000220: 8681 cc4a 8614 e03f 2b4b 1e7a b6ce ed3f
00000230: c33b fc32 a1ad c23f c184 9433 45dc df3f
00000240: ece1 44f0 d698 c03f c34a dfbf c9c8 a6bf
00000250: 135d f18b 673c e13f dead dfbc a1fd d3bf
00000260: 7626 2c01 c5b2 dc3f 754c fa95 d86b e33f
00000270: 7017 7de7 f98a a63f 3c9a 8806 5568 eb3f
00000280: 162e 8148 a06c dd3f cb53 a093 3e4e f13f
00000290: 0f26 8f3c c07e d83f 121a b160 7e6c f03f
000002a0: 8a50 0f22 b8f1 ec3f 96df fa2d 5d83 e83f
000002b0: c1e5 ebfb 3eaf d83f 2258 57f2 129d e73f
000002c0: f3c2 c7d8 1fb1 f13f febc 8ae9 cf64 f03f
000002d0: c778 ce5d 2def ce3f 6e2b 3121 b756 db3f
000002e0: 4280 0048 ce64 f33f 88dc 9f98 4b6a dd3f
000002f0: 17c7 1f0a 4976 f83f 3c45 9c78 e372 cc3f
00000300: 6e97 4911 8c1f bcbf c55c 291c 9001 0a40
00000310: 3758 036e bf3e e33f f9bf 24ab c8de dabf
00000320: af3c 3dca fcd0 f23f 8a14 4944 ee13 e13f
00000330: 2d72 7cc1 5815 ea3f 1839 a7d1 0eca eb3f
00000340: eb49 8ecc 7f6e e43f 76c4 84ba be8b ea3f
00000350: 2e3e 82fe 74d7 ea3f dc41 324a bc8e ea3f
00000360: 4d18 af4e 5cb2 0a40 7740 f36c a5e9 ed3f
00000370: 225d bd48 9bf9 eb3f 186a fc11 b2f1 d73f
00000380: e004 3262 d13f f03f 5645 de47 e33a e13f
00000390: 2b67 7dd3 d926 f43f 4788 407c fb12 f03f
000003a0: f051 b954 568e d13f 8c42 f1ed 1209 d43f
000003b0: 68f2 e8cf 4dc2 b13f 1c4d 66ab b725 e73f
000003c0: 5525 b442 5fad eb3f 4bf0 1729 4dfc f43f
000003d0: 3c8c 3aeb 08d3 e83f 315e 7359 f28b ec3f
000003e0: 1361 c8a2 5708 e43f 798e 8dea d0f7 e23f
000003f0: f66f 12ad 36eb f03f 1cb4 61e6 b575 ef3f
00000400: 71b0 2686 3f62 d43f daaf 27bf 19b4 eb3f
00000410: 9632 10b6 913b de3f 10e4 68c5 b89e e33f
00000420: 766d cf57 649d f73f 8197 b9e1 a92e 78bf
00000430: f22c 4fc3 0023 f53f ae10 8619 3d04 e03f
00000440: bcc2 2f49 345e f33f e748 dac6 72bf e03f
00000450: adbb 091d 36d8 e53f 8815 7f50 4eff e33f
00000460: af10 ea84 c084 ed3f 87c3 526e 587c ea3f
00000470: af3b d155 8a2f dc3f 91fd d489 1e11 ee3f
00000480: ecc5 0089 3c3f dc3f a187 e268 a62f e73f
00000490: 82e0 468c b977 9d3f 999f 652f 6500 f43f
000004a0: e5c4 361e d181 f63f d48e 3e59 a72c f43f
000004b0: b4ba 9896 4169 e33f 0fc4 4f4c 307d e93f
000004c0: 808b 28c4 281d e63f f700 1b7c af28 e13f
000004d0: f49e 149e bb17 f33f 1fef 426a 228b d13f
000004e0: d6ee f626 814f db3f 4eba cd36 9071 e43f
000004f0: 0d74 c207 6cf2 ea3f 6002 497a 92cd e33f
00000500: 829f b6fd 3dc8 ec3f 8bcd b9d4 7327 f63f
00000510: a0c8 e210 795d fb3f 4233 7cce 4f1b e93f
00000520: 1560 a5af 37f1 f63f c254 f582 ee24 0140
00000530: f5ae 3848 bc03 e83f 5bb3 eede 4c89 ea3f
00000540: 0490 2c1e d6d1 ee3f 062c ef32 0ebc dc3f
00000550: 8fb7 9f24 353f e53f 415c 4e51 e396 ef3f
00000560: 12d8 d66b 68ee 843f d0d9 62b7 5bb6 f73f
00000570: cefe beb8 b9c6 c03f f00a e125 5c52 df3f
00000580: 8d22 248f 5d8e 1140 94ec 9e1a 2e97 0240
00000590: e262 6117 8d45 e63f 129b be38 0afb f13f
000005a0: 647b 91ff 9f3a eb3f 5c3a 9bec eab6 ec3f
000005b0: 9093 6768 0414 f53f f6df 0c26 bb02 eb3f
000005c0: 2853 80fa 593c de3f d8d3 e548 442b e13f
000005d0: b94d f495 e5de e73f 16c9 c263 bd42 f33f
000005e0: 6124 dae8 217a e43f 3314 5794 5b08 f13f
000005f0: 5c2f ffa0 00a3 f43f c69b f44e 8e82 ed3f
00000600: ad82 652c 0370 ee3f d51c 2cc8 352b f03f
00000610: d50f c685 b901 ec3f ed0f f674 e221 ed3f
00000620: 6481 0dcb 6d14 f33f b667 fd62 d18d ee3f
00000630: f777 0c3b bf3d cf3f bd1a ecd1 c6bc f03f
00000640: a65d 9c9c a05f e63f c963 c6c0 6216 ec3f
00000650: 5c35 ea5a 395e e63f db99 463b edf4 df3f
00000660: 2e6d 0652 3637 d83f a7db 62fc 16bf f63f
00000670: a47d cefe 7e4f e53f 7f79 5bbd e658 e83f
00000680: f69b 007a c12a f43f 8e75 ddf1 41ca f63f
00000690: 8d21 7cf3 21e0 eb3f 44d0 4692 1388 d13f
000006a0: 44e9 4f57 38f1 ee3f 94b8 bffd 01c9 e13f
000006b0: 7997 c0f6 3084 eb3f 374f b43d c13f da3f
000006c0: 4934 e8eb fb59 f43f 9604 de92 7197 ea3f
000006d0: aaea 175a 26ff dd3f 3c22 bb28 d887 e53f
000006e0: 649c 258e d8f4 eb3f ae44 fe80 a4c0 e53f
000006f0: 6747 ab72 b378 e53f 5c24 4cfb 7563 f03f
00000700: 47ad 5210 cbf1 b53f 56de 956a de19 e73f
00000710: 0a8a 2591 8359 de3f 764f 1fb4 8036 e33f
00000720: 8f7c f927 dad5 d83f 88a4 04d6 907b ec3f
00000730: 26bc b32b e1d0 ef3f 2288 450c 283a f03f
00000740: f529 29ec 39e7 ea3f 3c2a ea4b 7bb1 e63f
00000750: b513 43e7 6ace c73f 8eaa ab71 1b49 e33f
00000760: 38e7 0cfc ad59 f03f 9fe6 0208 4f8a e93f
00000770: f76b 0b29 d484 0b40 83d1 19fa 18ea 0140
00000780: 12c1 bf82 24b3 eb3f 082a fd9f 845c 9d3f
00000790: 2098 719c ea6d e73f b212 5451 3aac ee3f
000007a0: 2aee 253c 2d43 ee3f d0d6 942d fd0d e43f
000007b0: edc5 5e50 37f0 e43f cb61 a051 448c f03f
000007c0: a58c d01f 4464 f43f 6a7c 6db8 983c e83f
000007d0: e034 370b 7fa3 ee3f 77c6 4382 f3df f23f
000007e0: 2e71 a2ab defe eb3f 5e04 f9ca 9f3b 0b40
000007f0: b673 a3f9 4b3e e93f 307b 18bd 0ecb e83f

reward f8 [1, 500]
-84.0975570678711 -86.77156066894531 -81.51605224609375 -80.27208709716797 -75.52210235595703 -78.20098876953125 -75.26761627197266 -77.74054718017578
-75.24409484863281 -73.72935485839844 -74.02555084228516 -70.93757629394531 -70.79969024658203 -68.48068237304688 -68.5060043334961 -64.3335189819336
-64.77732849121094 -66.71861267089844 -62.94389724731445 -64.74852752685547 -65.45303344726562 -63.35581970214844 -58.615596771240234 -55.2592658996582
-55.2826042175293 -55.5430908203125 -54.98088073730469 -52.995635986328125 -52.69813537597656 -50.330474853515625 -48.902587890625 -51.224090576171875
-45.662620544433594 -48.03615188598633 -44.325557708740234 -45.3988151550293 -44.665958404541016 -40.9139289855957 -43.60356903076172 -40.42190933227539
-40.01035690307617 -41.42940902709961 -43.039398193359375 -40.38368606567383 -38.244544982910156 -41.19715881347656 -40.262229919433594 -38.028743743896484
-34.399940490722656 -34.54301452636719 -38.283897399902344 -36.9617805480957 -37.58445739746094 -38.015201568603516 -33.42436981201172 -36.188533782958984
-32.117130279541016 -36.70840835571289 -33.050132751464844 -34.41789627075195 -31.198591232299805 -32.725563049316406 -28.958589553833008 -31.121871948242188
-30.67974853515625 -30.727514266967773 -31.674053192138672 -27.603382110595703 -32.34181213378906 -29.504907608032227 -29.66210174560547 -29.307079315185547
-29.573890686035156 -28.923690795898438 -29.535932540893555 -29.763938903808594 -27.796768188476562 -26.576997756958008 -27.084169387817383 -26.266523361206055
-26.10063934326172 -26.2296199798584 -26.40579605102539 -25.671728134155273 -26.15640640258789 -26.1260929107666 -25.818471908569336 -26.96630096435547
-25.45966339111328 -26.147539138793945 -24.193403244018555 -24.798633575439453 -25.138813018798828 -24.910690307617188 -24.8841552734375 -24.759380340576172
-26.078683853149414 -25.138368606567383 -25.43720245361328 -22.643022537231445 -22.439228057861328 -22.862197875976562 -23.795785903930664 -22.101524353027344
-22.971942901611328 -23.325353622436523 -22.485641479492188 -22.67304039001465 -22.497953414916992 -22.720687866210938 -21.74124526977539 -21.483936309814453
-22.630170822143555 -21.550464630126953 -21.804485321044922 -21.328393936157227 -20.961748123168945 -21.472793579101562 -21.14264678955078 -20.496397018432617
-21.37472152709961 -20.350481033325195 -20.384672164916992 -21.52729034423828 -20.455869674682617 -21.633588790893555 -21.6947078704834 -19.67091941833496
-19.861835479736328 -20.43214988708496 -20.744396209716797 -19.77196502685547 -19.441160202026367 -19.710010528564453 -18.777605056762695 -19.289289474487305
-19.358030319213867 -18.33718490600586 -18.232498168945312 -18.824962615966797 -19.33441162109375 -17.857074737548828 -18.884366989135742 -19.5378360748291
-18.273496627807617 -18.038583755493164 -17.95708656311035 -18.524385452270508 -17.726879119873047 -17.282386779785156 -18.045726776123047 -18.104358673095703
-18.00051498413086 -17.452198028564453 -17.759933471679688 -16.902606964111328 -18.7360897064209 -16.97174644470215 -17.085081100463867 -16.90105628967285
-16.84296989440918 -16.566869735717773 -16.48578643798828 -15.99310302734375 -16.47390365600586 -16.04989242553711 -16.461671829223633 -16.026077270507812
-16.143770217895508 -16.614459991455078 -15.905089378356934 -16.83222198486328 -16.02910804748535 -15.877697944641113 -15.953350067138672 -15.638960838317871
-15.39047622680664 -15.195671081542969 -14.642334938049316 -15.363234519958496 -15.636563301086426 -13.697486877441406 -14.511313438415527 -14.366105079650879
-14.77099609375 -14.991337776184082 -14.062383651733398 -13.825591087341309 -13.735481262207031 -14.088885307312012 -14.374371528625488 -13.604211807250977
-15.022934913635254 -14.458266258239746 -13.846039772033691 -14.21701431274414 -13.545427322387695 -14.723919868469238 -13.528420448303223 -13.111275672912598
-13.57830810546875 -13.324689865112305 -13.902396202087402 -13.172263145446777 -12.711665153503418 -12.700867652893066 -13.1551513671875 -12.774492263793945
-13.11392593383789 -12.334668159484863 -12.602787017822266 -11.695722579956055 -12.067962646484375 -12.36126708984375 -11.677895545959473 -11.36123275756836
-11.5295991897583 -11.7374849319458 -11.574626922607422 -11.410058975219727 -11.243180274963379 -10.981005668640137 -10.924677848815918 -11.434626579284668
-11.438276290893555 -11.068613052368164 -11.007076263427734 -11.498135566711426 -10.357651710510254 -10.085786819458008 -10.445430755615234 -10.003952026367188
-10.403547286987305 -9.581076622009277 -10.026541709899902 -9.646944999694824 -9.129737854003906 -10.193709373474121 -9.141927719116211 -8.453105926513672
-9.60328483581543 -9.076294898986816 -9.424439430236816 -7.9217448234558105 -8.302725791931152 -8.523173332214355 -8.335865020751953 -8.016480445861816
-7.669389724731445 -8.667681694030762 -7.699730396270752 -8.636829376220703 -7.091073989868164 -6.975449085235596 -7.031562328338623 -7.486224174499512
00000000: 0000 0060 3e06 55c0 0000 0040 61b1 55c0
00000010: 0000 0000 0761 54c0 0000 00e0 6911 54c0
00000020: 0000 0020 6ae1 52c0 0000 0000 dd8c 53c0
00000030: 0000 00a0 20d1 52c0 0000 0020 656f 53c0
00000040: 0000 0040 9fcf 52c0 0000 00c0 ad6e 52c0
00000050: 0000 00a0 a281 52c0 0000 0040 01bc 51c0
00000060: 0000 0020 2eb3 51c0 0000 0080 c31e 51c0
00000070: 0000 0060 6220 51c0 0000 0060 5815 50c0
00000080: 0000 00c0 bf31 50c0 0000 00c0 fdad 50c0
00000090: 0000 00a0 d178 4fc0 0000 00e0 e72f 50c0
000000a0: 0000 0080 fe5c 50c0 0000 0080 8bad 4fc0
000000b0: 0000 00e0 cb4e 4dc0 0000 00a0 2fa1 4bc0
000000c0: 0000 0060 2ca4 4bc0 0000 0000 84c5 4bc0
000000d0: 0000 0080 8d7d 4bc0 0000 0000 717f 4ac0
000000e0: 0000 0080 5c59 4ac0 0000 0000 4d2a 49c0
000000f0: 0000 0000 8873 48c0 0000 0000 af9c 49c0
00000100: 0000 00c0 d0d4 46c0 0000 00a0 a004 48c0
00000110: 0000 00e0 ab29 46c0 0000 0060 0cb3 46c0
00000120: 0000 0020 3e55 46c0 0000 00a0 fb74 44c0
00000130: 0000 00c0 41cd 45c0 0000 0020 0136 44c0
00000140: 0000 0060 5301 44c0 0000 00e0 f6b6 44c0
00000150: 0000 0000 0b85 45c0 0000 00a0 1c31 44c0
00000160: 0000 0040 4d1f 43c0 0000 0080 3c99 44c0
00000170: 0000 00c0 9021 44c0 0000 00e0 ad03 43c0
00000180: 0000 0040 3133 41c0 0000 0080 8145 41c0
00000190: 0000 00c0 5624 43c0 0000 00a0 1b7b 42c0
000001a0: 0000 0080 cfca 42c0 0000 0020 f201 43c0
000001b0: 0000 00c0 51b6 40c0 0000 00e0 2118 42c0
000001c0: 0000 0020 fe0e 40c0 0000 0020 ad5a 42c0
000001d0: 0000 00c0 6a86 40c0 0000 00a0 7d35 41c0
000001e0: 0000 00e0 d632 3fc0 0000 0040 df5c 40c0
000001f0: 0000 0020 66f5 3cc0 0000 0000 331f 3fc0
00000200: 0000 0000 04ae 3ec0 0000 0060 3eba 3ec0
00000210: 0000 00c0 8eac 3fc0 0000 0040 779a 3bc0
00000220: 0000 0080 c02b 40c0 0000 00a0 4181 3dc0
00000230: 0000 0080 7fa9 3dc0 0000 00c0 9c4e 3dc0
00000240: 0000 0080 ea92 3dc0 0000 0000 77ec 3cc0
00000250: 0000 00e0 3289 3dc0 0000 0080 91c3 3dc0
00000260: 0000 0000 f9cb 3bc0 0000 0020 b693 3ac0
00000270: 0000 0020 8c15 3bc0 0000 00e0 3a44 3ac0
00000280: 0000 0080 c319 3ac0 0000 0060 c83a 3ac0
00000290: 0000 0040 e267 3ac0 0000 0060 f6ab 39c0
000002a0: 0000 0040 0a28 3ac0 0000 00a0 4720 3ac0
000002b0: 0000 0060 87d1 39c0 0000 0080 5ff7 3ac0
000002c0: 0000 0080 ac75 39c0 0000 0020 c525 3ac0
000002d0: 0000 00e0 8231 38c0 0000 0040 73cc 38c0
000002e0: 0000 0040 8923 39c0 0000 0000 23e9 38c0
000002f0: 0000 0000 58e2 38c0 0000 00c0 66c2 38c0
00000300: 0000 00a0 2414 3ac0 0000 0020 6c23 39c0
00000310: 0000 0080 ec6f 39c0 0000 0020 9da4 36c0
00000320: 0000 0040 7170 36c0 0000 0000 b9dc 36c0
00000330: 0000 00a0 b8cb 37c0 0000 0080 fd19 36c0
00000340: 0000 0040 d1f8 36c0 0000 0060 4a53 37c0
00000350: 0000 0000 537c 36c0 0000 0060 4cac 36c0
00000360: 0000 00e0 797f 36c0 0000 0000 7fb8 36c0
00000370: 0000 0040 c2bd 35c0 0000 0040 e37b 35c0
00000380: 0000 00e0 52a1 36c0 0000 0040 eb8c 35c0
00000390: 0000 00c0 f2cd 35c0 0000 00a0 1154 35c0
000003a0: 0000 0020 35f6 34c0 0000 0000 0979 35c0
000003b0: 0000 0080 8424 35c0 0000 00e0 137f 34c0
000003c0: 0000 00c0 ed5f 35c0 0000 0020 b959 34c0
000003d0: 0000 00e0 7962 34c0 0000 0080 fc86 35c0
000003e0: 0000 00e0 b374 34c0 0000 00e0 32a2 35c0
000003f0: 0000 0060 d8b1 35c0 0000 0060 c1ab 33c0
00000400: 0000 0040 a1dc 33c0 0000 0060 a16e 34c0
00000410: 0000 00c0 90be 34c0 0000 0080 9fc5 33c0
00000420: 0000 00e0 ef70 33c0 0000 0040 c3b5 33c0
00000430: 0000 0020 11c7 32c0 0000 00e0 0e4a 33c0
00000440: 0000 00e0 a75b 33c0 0000 00c0 5156 32c0
00000450: 0000 0000 853b 32c0 0000 00c0 30d3 32c0
00000460: 0000 0000 9c55 33c0 0000 0040 69db 31c0
00000470: 0000 00e0 65e2 32c0 0000 00a0 af89 33c0
00000480: 0000 00e0 0346 32c0 0000 00a0 e009 32c0
00000490: 0000 00a0 03f5 31c0 0000 0020 3e86 32c0
000004a0: 0000 00c0 14ba 31c0 0000 0080 4a48 31c0
000004b0: 0000 00c0 b40b 32c0 0000 0040 b71a 32c0
000004c0: 0000 00c0 2100 32c0 0000 0040 c373 31c0
000004d0: 0000 0000 8bc2 31c0 0000 0040 11e7 30c0
000004e0: 0000 0060 70bc 32c0 0000 0060 c4f8 30c0
000004f0: 0000 00e0 c715 31c0 0000 00a0 abe6 30c0
00000500: 0000 00e0 ccd7 30c0 0000 0060 1e91 30c0
00000510: 0000 0080 5c7c 30c0 0000 0000 78fc 2fc0
00000520: 0000 00c0 5179 30c0 0000 00c0 c50c 30c0
00000530: 0000 0020 3076 30c0 0000 0000 ad06 30c0
00000540: 0000 0020 ce24 30c0 0000 0040 4d9d 30c0
00000550: 0000 00e0 67cf 2fc0 0000 0080 0cd5 30c0
00000560: 0000 00a0 7307 30c0 0000 00a0 61c1 2fc0
00000570: 0000 0080 1de8 2fc0 0000 00e0 2547 2fc0
00000580: 0000 0080 ecc7 2ec0 0000 0000 2f64 2ec0
00000590: 0000 0020 e048 2dc0 0000 00e0 f9b9 2ec0
000005a0: 0000 00a0 eb45 2fc0 0000 0000 1d65 2bc0
000005b0: 0000 00e0 ca05 2dc0 0000 0020 72bb 2cc0
000005c0: 0000 0000 c08a 2dc0 0000 00a0 90fb 2dc0
000005d0: 0000 00c0 f01f 2cc0 0000 00e0 b3a6 2bc0
000005e0: 0000 0000 9178 2bc0 0000 0060 822d 2cc0
000005f0: 0000 00a0 adbf 2cc0 0000 0040 5b35 2bc0
00000600: 0000 0020 be0b 2ec0 0000 00e0 a1ea 2cc0
00000610: 0000 0020 2cb1 2bc0 0000 0080 1c6f 2cc0
00000620: 0000 0040 4217 2bc0 0000 00a0 a572 2dc0
00000630: 0000 0020 8d0e 2bc0 0000 0020 f938 2ac0
00000640: 0000 0000 1828 2bc0 0000 00c0 3da6 2ac0
00000650: 0000 00e0 06ce 2bc0 0000 00e0 3258 2ac0
00000660: 0000 0060 5f6c 29c0 0000 0020 d866 29c0
00000670: 0000 0000 704f 2ac0 0000 0040 8a8c 29c0
00000680: 0000 0080 543a 2ac0 0000 00a0 59ab 28c0
00000690: 0000 0080 a034 29c0 0000 00c0 3564 27c0
000006a0: 0000 0000 cc22 28c0 0000 0000 f8b8 28c0
000006b0: 0000 0020 155b 27c0 0000 0080 f3b8 26c0
000006c0: 0000 00a0 270f 27c0 0000 00a0 9779 27c0
000006d0: 0000 0080 3526 27c0 0000 0040 f3d1 26c0
000006e0: 0000 0020 827c 26c0 0000 0060 46f6 25c0
000006f0: 0000 0060 6fd9 25c0 0000 0060 87de 26c0
00000700: 0000 00c0 65e0 26c0 0000 0040 2123 26c0
00000710: 0000 0080 9f03 26c0 0000 00a0 0bff 26c0
00000720: 0000 0020 1eb7 24c0 0000 0040 ec2b 24c0
00000730: 0000 0080 0fe4 24c0 0000 0000 0602 24c0
00000740: 0000 00c0 9dce 24c0 0000 00e0 8229 23c0
00000750: 0000 00e0 960d 24c0 0000 0060 3c4b 23c0
00000760: 0000 0000 6d42 22c0 0000 00e0 2d63 24c0
00000770: 0000 00c0 aa48 22c0 0000 0080 fde7 20c0
00000780: 0000 00c0 e134 23c0 0000 0020 1027 22c0
00000790: 0000 0020 50d9 22c0 0000 00e0 ddaf 1fc0
000007a0: 0000 00e0 fe9a 20c0 0000 0060 dd0b 21c0
000007b0: 0000 0080 f6ab 20c0 0000 0020 7008 20c0
000007c0: 0000 0080 74ad 1ec0 0000 0060 da55 21c0
000007d0: 0000 0020 86cc 1ec0 0000 0080 0e46 21c0
000007e0: 0000 0080 425d 1cc0 0000 0020 dce6 1bc0
000007f0: 0000 00e0 5120 1cc0 0000 00c0 e4f1 1dc0
