wandbcsv/ant_boxweight_train.npz (npz, 8470 bytes, 2 tensors)

reward f8 [1, 500]
0	0xc0668b2660000000	-180.3484344482422
1	0xc0663b38a0000000	-177.8506622314453
2	0xc0669034c0000000	-180.50643920898438
3	0xc06624b220000000	-177.14674377441406
4	0xc066254da0000000	-177.1657257080078
5	0xc066461540000000	-178.19009399414062
6	0xc0665e96c0000000	-178.95590209960938
7	0xc065c72300000000	-174.2230224609375
8	0xc0665481e0000000	-178.64085388183594
9	0xc065d978a0000000	-174.7959747314453
10	0xc065df53e0000000	-174.97898864746094
11	0xc065ef54c0000000	-175.47909545898438
12	0xc065f9ce60000000	-175.8064422607422
13	0xc065e85380000000	-175.26019287109375
14	0xc065f55860000000	-175.6670379638672
15	0xc065b28420000000	-173.57862854003906
16	0xc065a4ce60000000	-173.1501922607422
17	0xc065b9de20000000	-173.80836486816406
18	0xc065b64520000000	-173.69593811035156
19	0xc065c395e0000000	-174.11204528808594
20	0xc065a1ac60000000	-173.0522918701172
21	0xc065b2b880000000	-173.58502197265625
22	0xc065319480000000	-169.54937744140625
23	0xc065b434c0000000	-173.63143920898438
24	0xc0659499c0000000	-172.64376831054688
25	0xc065735ac0000000	-171.60482788085938
26	0xc0653ef340000000	-169.96719360351562
27	0xc06555c660000000	-170.6804656982422
28	0xc065a4f100000000	-173.1544189453125
29	0xc0659b6ee0000000	-172.85728454589844
30	0xc065673dc0000000	-171.22628784179688
31	0xc0655eaec0000000	-170.95883178710938
32	0xc06557bf00000000	-170.7420654296875
33	0xc0654c1000000000	-170.376953125
34	0xc06526f340000000	-169.21719360351562
35	0xc0651ad620000000	-168.83863830566406
36	0xc0652817e0000000	-169.25291442871094
37	0xc06570e340000000	-171.52774047851562
38	0xc0651e1580000000	-168.94012451171875
39	0xc065396360000000	-169.7933807373047
40	0xc0654391a0000000	-170.1115264892578
41	0xc064e116c0000000	-167.03402709960938
42	0xc064e3c1c0000000	-167.11740112304688
43	0xc064f15a20000000	-167.54225158691406
44	0xc065269ae0000000	-169.20640563964844
45	0xc06501cfa0000000	-168.0565948486328
46	0xc0654ec8a0000000	-170.4619903564453
47	0xc064ee9100000000	-167.4552001953125
48	0xc065448f60000000	-170.1425018310547
49	0xc064bf74a0000000	-165.9829864501953
50	0xc064da5000000000	-166.822265625
51	0xc064f4e260000000	-167.6526336669922
52	0xc064d35660000000	-166.6042938232422
53	0xc0652ce900000000	-169.4034423828125
54	0xc0657847e0000000	-171.75877380371094
55	0xc064fb1ca0000000	-167.8472442626953
56	0xc0652d3820000000	-169.41310119628906
57	0xc0651f77a0000000	-168.9833526611328
58	0xc064c43380000000	-166.13128662109375
59	0xc065016340000000	-168.04336547851562
60	0xc06521a800000000	-169.0517578125
61	0xc0652b03e0000000	-169.34422302246094
62	0xc0650699c0000000	-168.20626831054688
63	0xc0649495a0000000	-164.6432647705078
64	0xc064ee6820000000	-167.45021057128906
65	0xc064cffd20000000	-166.49964904785156
66	0xc064eb8240000000	-167.35964965820312
67	0xc064c318a0000000	-166.0967559814453
68	0xc064e1f380000000	-167.06097412109375
69	0xc064eed5c0000000	-167.46359252929688
70	0xc065208b80000000	-169.01702880859375
71	0xc065037ec0000000	-168.10922241210938
72	0xc065175620000000	-168.72926330566406
73	0xc064966a40000000	-164.70046997070312
74	0xc064fcd1a0000000	-167.9005889892578
75	0xc064d03740000000	-166.50674438476562
76	0xc064c72920000000	-166.22377014160156
77	0xc06548c520000000	-170.27406311035156
78	0xc064f2be40000000	-167.58572387695312
79	0xc06500b2e0000000	-168.02183532714844
80	0xc064f58260000000	-167.6721649169922
81	0xc0648dd9e0000000	-164.43284606933594
82	0xc065166f00000000	-168.7010498046875
83	0xc064f79ac0000000	-167.73764038085938
84	0xc065133dc0000000	-168.60128784179688
85	0xc0652671c0000000	-169.20138549804688
86	0xc06521fa80000000	-169.06182861328125
87	0xc06508ba40000000	-168.27273559570312
88	0xc0650c0640000000	-168.37576293945312
89	0xc064c683e0000000	-166.20359802246094
90	0xc064df7be0000000	-166.98387145996094
91	0xc06525c0c0000000	-169.17977905273438
92	0xc064e372e0000000	-167.10777282714844
93	0xc064cd4de0000000	-166.41575622558594
94	0xc064f62a40000000	-167.69265747070312
95	0xc064b56800000000	-165.6689453125
96	0xc064b788a0000000	-165.7354278564453
97	0xc065028d80000000	-168.07977294921875
98	0xc064980be0000000	-164.75144958496094
99	0xc064bf96c0000000	-165.98715209960938
100	0xc064b41a60000000	-165.6282196044922
101	0xc064b6dae0000000	-165.71421813964844
102	0xc064f6d800000000	-167.7138671875
103	0xc064f6c800000000	-167.7119140625
104	0xc064e71e20000000	-167.22242736816406
105	0xc064a96860000000	-165.2939910888672
106	0xc064c10b80000000	-166.03265380859375
107	0xc0649afc20000000	-164.84327697753906
108	0xc064dd7b40000000	-166.92129516601562
109	0xc064b192e0000000	-165.54917907714844
110	0xc0648c3080000000	-164.38092041015625
111	0xc064e60ae0000000	-167.18882751464844
112	0xc064882be0000000	-164.25535583496094
113	0xc064dab1e0000000	-166.83421325683594
114	0xc064797620000000	-163.79566955566406
115	0xc064f60520000000	-167.68812561035156
116	0xc065173ec0000000	-168.72640991210938
117	0xc064ba9dc0000000	-165.83175659179688
118	0xc06497fe40000000	-164.74978637695312
119	0xc0649334a0000000	-164.6001739501953
120	0xc064e6c760000000	-167.2118377685547
121	0xc064a52d20000000	-165.16175842285156
122	0xc064c969a0000000	-166.2941436767578
123	0xc06450e8a0000000	-162.5283966064453
124	0xc0648014c0000000	-164.00253295898438
125	0xc064843980000000	-164.13201904296875
126	0xc064a4da40000000	-165.15164184570312
127	0xc064b07380000000	-165.51409912109375
128	0xc0649ba580000000	-164.86395263671875
129	0xc064d16900000000	-166.5440673828125
130	0xc0647ab360000000	-163.8343963623047
131	0xc06498b420000000	-164.77198791503906
132	0xc0647f3380000000	-163.97503662109375
133	0xc0648b0100000000	-164.3438720703125
134	0xc0648f9e60000000	-164.4880828857422
135	0xc063f878a0000000	-159.7647247314453
136	0xc064b54ae0000000	-165.66539001464844
137	0xc064746420000000	-163.63722229003906
138	0xc064573c00000000	-162.72607421875
139	0xc0644c1e60000000	-162.3787078857422
140	0xc064438540000000	-162.11001586914062
141	0xc06432cc60000000	-161.5874481201172
142	0xc0646040c0000000	-163.00790405273438
143	0xc0647ce2e0000000	-163.90269470214844
144	0xc064343680000000	-161.63165283203125
145	0xc063f4c260000000	-159.6487274169922
146	0xc0647857a0000000	-163.7606964111328
147	0xc064684b80000000	-163.25921630859375
148	0xc0642bc080000000	-161.36724853515625
149	0xc064263fa0000000	-161.1952667236328
150	0xc064456d40000000	-162.16958618164062
151	0xc0645c6180000000	-162.88690185546875
152	0xc064350ba0000000	-161.6576690673828
153	0xc06410a360000000	-160.5199432373047
154	0xc063bd8d20000000	-157.92347717285156
155	0xc064237ec0000000	-161.10922241210938
156	0xc0642e2640000000	-161.44216918945312
157	0xc0640c4ba0000000	-160.3842315673828
158	0xc063fecfe0000000	-159.96287536621094
159	0xc0640b65a0000000	-160.3561553955078
160	0xc064138680000000	-160.61016845703125
161	0xc063fed780000000	-159.96380615234375
162	0xc0640ecc00000000	-160.46240234375
163	0xc063c399e0000000	-158.11253356933594
164	0xc063d29240000000	-158.58035278320312
165	0xc063d45300000000	-158.6351318359375
166	0xc063e08f60000000	-159.0175018310547
167	0xc0641a3e20000000	-160.82008361816406
168	0xc0640229c0000000	-160.06759643554688
169	0xc063c731e0000000	-158.22483825683594
170	0xc063c4fc80000000	-158.15582275390625
171	0xc063cb5e60000000	-158.3552703857422
172	0xc063bcc4c0000000	-157.89901733398438
173	0xc063c27da0000000	-158.0778350830078
174	0xc06397a280000000	-156.73858642578125
175	0xc0637f2680000000	-155.97344970703125
176	0xc063ffcd80000000	-159.99383544921875
177	0xc063b13e20000000	-157.53883361816406
178	0xc0633fe0c0000000	-153.99618530273438
179	0xc063af4a60000000	-157.4778289794922
180	0xc0639eab40000000	-156.95840454101562
181	0xc0638fa340000000	-156.48867797851562
182	0xc06397ce20000000	-156.74391174316406
183	0xc0632eec80000000	-153.46636962890625
184	0xc063589160000000	-154.7677459716797
185	0xc063799f20000000	-155.80067443847656
186	0xc06317c660000000	-152.7429656982422
187	0xc0635c6b80000000	-154.88812255859375
188	0xc06377dc60000000	-155.7456512451172
189	0xc0633641a0000000	-153.6955108642578
190	0xc0635c9100000000	-154.8927001953125
191	0xc06358c0a0000000	-154.7735137939453
192	0xc0637341c0000000	-155.60177612304688
193	0xc06384c580000000	-156.14910888671875
194	0xc063362000000000	-153.69140625
195	0xc0637f39a0000000	-155.9757843017578
196	0xc0637b46c0000000	-155.85238647460938
197	0xc0639d9420000000	-156.92433166503906
198	0xc06362de80000000	-155.08966064453125
199	0xc063728d40000000	-155.57974243164062
200	0xc063756400000000	-155.66845703125
201	0xc0636b1ec0000000	-155.34750366210938
202	0xc0633974a0000000	-153.7954864501953
203	0xc0637bf3e0000000	-155.87351989746094
204	0xc0630f4b80000000	-152.47796630859375
205	0xc0636659a0000000	-155.1984405517578
206	0xc063382800000000	-153.7548828125
207	0xc06330c500000000	-153.5240478515625
208	0xc06308e360000000	-152.2777557373047
209	0xc06347eec0000000	-154.24789428710938
210	0xc063073b00000000	-152.2259521484375
211	0xc0633b3820000000	-153.85060119628906
212	0xc0630607a0000000	-152.1884307861328
213	0xc0636bcfa0000000	-155.3690948486328
214	0xc063908da0000000	-156.5172882080078
215	0xc062f48680000000	-151.64141845703125
216	0xc0631dd960000000	-152.9327850341797
217	0xc062b8dd20000000	-149.77699279785156
218	0xc062d7c9c0000000	-150.74337768554688
219	0xc062d27740000000	-150.57705688476562
220	0xc062a1d500000000	-149.0572509765625
221	0xc062c55ca0000000	-150.1675567626953
222	0xc062c81b80000000	-150.25335693359375
223	0xc062eaff00000000	-151.3436279296875
224	0xc062894800000000	-148.2900390625
225	0xc062dda900000000	-150.9268798828125
226	0xc062da4140000000	-150.82046508789062
227	0xc062ae3220000000	-149.44361877441406
228	0xc062883ac0000000	-148.25717163085938
229	0xc0629be660000000	-148.8718719482422
230	0xc062db5b20000000	-150.85487365722656
231	0xc0624cb400000000	-146.39697265625
232	0xc062c0a620000000	-150.02027893066406
233	0xc062ab6480000000	-149.35601806640625
234	0xc062d26e60000000	-150.5759735107422
235	0xc062ae07a0000000	-149.4384307861328
236	0xc062a41880000000	-149.12799072265625
237	0xc0628c0780000000	-148.37591552734375
238	0xc062c4b080000000	-150.14654541015625
239	0xc062a258a0000000	-149.0733184814453
240	0xc062427180000000	-146.07635498046875
241	0xc06268d9a0000000	-147.2765655517578
242	0xc062a8b220000000	-149.27174377441406
243	0xc06280c280000000	-148.02374267578125
244	0xc0626077e0000000	-147.01463317871094
245	0xc0623921e0000000	-145.78538513183594
246	0xc06278e060000000	-147.7773895263672
247	0xc0621d63e0000000	-144.91844177246094
248	0xc061e5dc00000000	-143.18310546875
249	0xc062a48600000000	-149.141357421875
250	0xc062334e20000000	-145.60328674316406
251	0xc0626aab40000000	-147.33340454101562
252	0xc0626625c0000000	-147.19210815429688
253	0xc061f6ba20000000	-143.71022033691406
254	0xc062012300000000	-144.0355224609375
255	0xc0623e8f60000000	-145.9550018310547

x_diff f8 [1, 500]
0	0xbfbc0791c4ad1505	-0.10949049998915335
1	0x3fd909aef7598d4c	0.39121603160147767
2	0x3faa7b587082ab00	0.051722301229650824
3	0xbfe53e6f16386cb2	-0.6638713296882968
4	0xbfd9591bfd1261cf	-0.3960638018993707
5	0xbfe817b45b37347e	-0.7528936177783547
6	0xbfdc3d86df65e127	-0.4412553006764192
7	0xc002b3a5b3bd00ad	-2.3377183954290417
8	0x3fe02696ebf930ff	0.5047106369834465
9	0xbfe5f1484bf0cd4e	-0.6857034190383418
10	0x3f903bb9400bf4c3	0.015852827581501538
11	0x3ff87772a4b928ce	1.529162066889103
12	0x3fd84c7d940c6647	0.37966861207823793
13	0x3ff3d04b521f3ddc	1.2383530815021606
14	0x3fa0bb53d2f99a8b	0.032679194930826126
15	0xc00e3159e73ad3d4	-3.7740972580745424
16	0x3fd31af779e38ddb	0.2985209169694067
17	0xbffbb862373506d2	-1.7325155407456134
18	0xbff96226368a4961	-1.586462224052035
19	0xc00b43b594a6c827	-3.408061181392458
20	0xbfcf2e72b99aaeec	-0.2436049848814642
21	0xc0052133468eca2e	-2.6412110817266443
22	0x3fd343cae5f1fdd5	0.30101273017495817
23	0xbffd296301a7a177	-1.8226041855469626
24	0xc0016ea9e3a4ccb8	-2.179034975497043
25	0xbff813e5e42c9164	-1.5048579133081939
26	0xbfcc3654eda45e15	-0.2204080734597801
27	0x3fe70d793b70d291	0.7203947220755983
28	0x3fdc583d40983094	0.4428856974416331
29	0xbfc5b39ada6eef0c	-0.16954360643091382
30	0xbfed8d034d5c539d	-0.9234634886694156
31	0xbff706f81af492d2	-1.4392014553970296
32	0xbfdbcf9c3c6906a8	-0.4345465269035267
33	0xbfe349c9ae0f10b7	-0.6027573012911692
34	0xbfd221c480a53c2b	-0.283311010008165
35	0xbfbedbb76f68b5fe	-0.12054010839411686
36	0xbfe8eb8f06b4643b	-0.778754723639515
37	0xbf996282f72b69f4	-0.02478985437014987
38	0x3fed6c41776e7e9d	0.9194648106240099
39	0xbfceeb0f6b922b96	-0.24154846909035815
40	0x3fb3ee53e4f1216f	0.07785534228708511
41	0xc001e7bf00f6ddba	-2.238157279523617
42	0xbffb29e28c53eba6	-1.6977258187823536
43	0x3ffb84b226fad3f0	1.7198964617393777
44	0xc00a08fb55ac9c46	-3.2543856328298117
45	0xc0082c72f7b14740	-3.0217036581970262
46	0xc00fa3c8b02d4f2a	-3.95497262609742
47	0xc00aad2616857270	-3.3345453032946395
48	0x3fd322aebbfb73bc	0.2989918552173625
49	0xbffd3177fb64bd32	-1.8245773143824633
50	0x3fc7aaccf24de05b	0.1848999198080062
51	0xbff39de2823be7cb	-1.2260460936799855
52	0xbff56476c3084a9f	-1.3370273226216012
53	0x3fd4251834241e61	0.31476407138732126
54	0xbffd610af72e6f92	-1.836192098190598
55	0x3fd8bdb3bdfd40fc	0.3865784983982079
56	0xbff2de0b686b103a	-1.1792100981556488
57	0xbfd1ac9d83f7b93b	-0.27616060149638927
58	0xbfe331c3596dc1d7	-0.5998245951323565
59	0x3fe9f91e443f6917	0.8116599400484884
60	0xbffc62f9c4f7b13c	-1.7741639799160813
61	0xbfdcac1d46d83e3a	-0.4480050269930619
62	0x3fdfb9a3dcee32aa	0.4957055718921689
63	0xc000e9a9c94c8224	-2.1140933729623317
64	0xbff8c3a97579fdb9	-1.5477690304686418
65	0x3fce892f0af52fa5	0.2385615161423377
66	0xbfc55167c4e75f66	-0.16654679407542544
67	0x4000b93f9f4be395	2.0904533810648425
68	0xbfd1202df5f7ccb5	-0.2675890829115802
69	0xbff2cbb8cecadf26	-1.1747367933111916
70	0x3ff1090a07c83d58	1.0647068313590662
71	0xbffa668b58082f6e	-1.6500352324246381
72	0xbff834a8fd634cd5	-1.5128564737286088
73	0xbfd84b691d128e1c	-0.37960269774541344
74	0xbffcf10a36e9f198	-1.8088476319381694
75	0x3fd999ca0896132d	0.40001154745577844
76	0xbfceaa224bba47f5	-0.2395670766605346
77	0x3fb7c45592efd457	0.0928395732624535
78	0x3fd59dcd57779848	0.33775647680011334
79	0xbfcd1a7a3620cd4d	-0.22737052576995112
80	0x3fd99c66021f120e	0.4001708050457474
81	0x3ff40c73066ca643	1.2530393839791862
82	0xbfdc349ab4915edc	-0.44071071275310003
83	0xc0046ff5fbecd63e	-2.5546683961536294
84	0x3f821d0c9f5b8b6a	0.008844469655235183
85	0xc003cef0d4ea61dd	-2.4760452875163836
86	0x3fc68151f55630ac	0.17582153777437293
87	0xbfdf347e9ef36e35	-0.4875790169005286
88	0x3ff12302454cff70	1.071047087389129
89	0x3ff2f7a7874075a7	1.1854625018380405
90	0xc009ecf776b820fb	-3.2407063746396694
91	0x3feae0d93e6da5d6	0.839947339945122
92	0x3feae0ad6d660197	0.8399264465988833
93	0xbfd0c6a7f34f3bf1	-0.26212500343984774
94	0x3fe3c3f102b928ff	0.6176686337651346
95	0x3ffa8a5c574985bd	1.6587794694572573
96	0xbfde2aaaac531d1a	-0.4713541682107959
97	0xc001553500b22e87	-2.1666050009133104
98	0xbfe5f44ed7d27623	-0.6860727515483557
99	0x3fedeb21f51c4f7b	0.934952715617768
100	0xbff7eaa0f955bf72	-1.4947824229857045
101	0x3fe1c225edff66fa	0.5549497269050498
102	0x3ff9480db5fba6a2	1.58009120070566
103	0xc001b2c0036a045b	-2.212280298874743
104	0xbff168bca5d29468	-1.0880705335087217
105	0x3fdf9ccfbd1ad6b1	0.493946013138479
106	0xc0059070e90fcb3f	-2.695527859491818
107	0x3ff086985761323e	1.0328601277607414
108	0x3ff5785e6f613d88	1.3418869353079987
109	0xc00637227685b941	-2.7769212016638964
110	0x3ff2dff5164447c9	1.1796770925325168
111	0x3fe69e2be82611b5	0.706808045783467
112	0xc009a2f07f8b2266	-3.204560276444954
113	0xbfe73d3e0f956473	-0.7262258819929585
114	0x3fe47630860ffbf2	0.6394274347693438
115	0x3fd5ba481f63e835	0.3394947344346549
116	0xbff125b53371c8f7	-1.0717060098218647
117	0x3fecbe111eebec2f	0.8982015232026067
118	0x3fe29fbd79b806ee	0.5819995286294366
119	0xbfe84021c210118b	-0.7578285970962936
120	0xbfff810428612753	-1.9689981057476487
121	0xbff7151f5a948ee8	-1.4426568544667422
122	0xbfb1f734c33ab644	-0.07017831579533956
123	0x3fa1f8ddad59449b	0.03510182133744274
124	0x3fc1074f18411b85	0.13303555187505026
125	0xbfeb07265c20e0df	-0.8446227836020873
126	0xbff2bd363925df22	-1.1711942894307374
127	0x3fe074e3f06840b4	0.5142688460782865
128	0xbfe41cf1bf7e5eb8	-0.6285332431898132
129	0xbfe55412d1eae34b	-0.666512880320718
130	0xc005fbfe46e0dda7	-2.748043588387833
131	0x3fdeba302ec52f9b	0.48011402671249365
132	0x3fe36aee65f5d18e	0.6068031302843779
133	0xbffb345ce2d13589	-1.7002838954971102
134	0x3fd00e9723e71ea6	0.2508905268300431
135	0x3fd43c008a73a069	0.3161622383181624
136	0xbfe6aa69d7107da2	-0.7083024216153044
137	0xbff7c3ee05c12826	-1.485334417799558
138	0x3fcc9adb4e19fe34	0.223475850234523
139	0x3ff0c0669f050e18	1.0469728671749916
140	0xbff9132578fd6aae	-1.5671744085472414
141	0x3fd31080de4d3b2c	0.2978822871127018
142	0x3fd920d7846ed130	0.3926295083322371
143	0xbff80d48c26cdad4	-1.503243216966145
144	0xbfe117bd430347ec	-0.5341478642314974
145	0x3ff44426f2f0d80a	1.2666387071490157
146	0x3fe6be9491561f81	0.7107642019845885
147	0x3ff59cd9cef299db	1.3507936557667708
148	0xbfe8a67be7fd7e63	-0.7703227549608979
149	0xc00582e77881cb0b	-2.6889180578813288
150	0x3fe41fba4ac1e169	0.6288730106453332
151	0xbff764575e9b78f1	-1.461997384605237
152	0x3fd8f3b318fae992	0.3898742431589649
153	0xc00a0121eaa91ffc	-3.250552972112926
154	0xc00924a574eda8ab	-3.1428937087085465
155	0xbfd5eca95b552bbf	-0.3425696746750723
156	0xbfa7566ebfcb18ab	-0.04558130351283415
157	0x3ff51ddb9b5516bb	1.319789511458494
158	0xbfd6b756a4b3398f	-0.35494009098047113
159	0x3ffe582e661569a1	1.8965286243097597
160	0xbff9f629bc426f42	-1.6225983957182994
161	0x3ff23e8401e0874c	1.1402626107523757
162	0x3fa09663f05e9a7a	0.03239738759230178
163	0x3ff93c9a12a90bf0	1.5772953728599042
164	0x3fe10cacaac8627d	0.532797177848877
165	0xbfad4b9fbf8ef6d2	-0.05721759045944243
166	0xbfe4488b7ecd3a01	-0.6338555790514989
167	0xbfb4da79df1b2ce1	-0.08145868012359216
168	0xc0016851575616c3	-2.175936395945287
169	0x3fc33a8baea3996d	0.15022417094514698
170	0x3fe0a4e3b6a9dd0a	0.5201281135222484
171	0xbff7c4c6b7292601	-1.4855410723415619
172	0xc00370b973893df9	-2.430041220308109
173	0xbfc2a929f1c069c4	-0.1457874708583643
174	0x3fe912bce406cc86	0.7835373357433049
175	0xbffb83e877498e73	-1.7197041186963389
176	0x3ff75833c9cdf259	1.4590337641704052
177	0x3fec000bc1961ecb	0.8750056057915229
178	0xbfeddf25b82f9b59	-0.9334896657354462
179	0xc000f55766c12ea8	-2.119795611162619
180	0xc0079594f09d80be	-2.948037986570937
181	0xc003550367189dc7	-2.416510396422129
182	0xbfaa2a899557687a	-0.051105784874111174
183	0xbfe5413a7ed46aa9	-0.6642124631064991
184	0x3fd7b08b1b0e5bc8	0.3701503528804406
185	0x3fe83fd6ac69b5e6	0.7577927939834666
186	0xbfdbc49f5128aeab	-0.433875874764207
187	0xbfd0ed31754006ee	-0.2644771237392963
188	0xbff5c70303b66fdd	-1.3610868592286274
189	0xc005ce021c65c2e3	-2.7255899637751653
190	0x3fef889812af8579	0.9854240765527457
191	0x3ff0a312b6ab2f91	1.039812768506611
192	0xbfe53a9e713e63fd	-0.6634056293288492
193	0x3fd511ad65f3aa55	0.329203939020464
194	0xbfecc597180c9dcb	-0.8991198987686685
195	0xc0123fca31700482	-4.562294743024838
196	0xbfc331d34cce995d	-0.14995805025427958
197	0xbfe565cc65ff92c0	-0.6686765663294736
198	0xbfecb684250e9ad5	-0.8972798084040173
199	0x3ff1325135339ee7	1.074784477061195
200	0x3ff29c2b7344aa58	1.163127374903203
201	0x3fd6c4071b66ba99	0.3557145850744888
202	0xc002ed8e2cfe7581	-2.3659938349871372
203	0xbff2b72192f5fcee	-1.1697097530994216
204	0xbfdd8b3dfc39fbdf	-0.4616236651563081
205	0x3fcb361eaec46ae4	0.21258910687978194
206	0xbfcea874d5250151	-0.23951588065575405
207	0x3fe644400cf59f45	0.6958313229670031
208	0x3fdf126f842e6d0b	0.48550022037825674
209	0xc00335d4fd857c71	-2.401285153042004
210	0x3fc2d1467ff76141	0.14701157806735846
211	0xbff73831b97bbb50	-1.4512192960207422
212	0xbfe1c0c7279efd2f	-0.5547824643944405
213	0x3feb63e97587b1f4	0.8559462829121558
214	0x3fb1fb63d842c472	0.07024215726666386
215	0x3fe1bb3e02935ce5	0.5541067171388049
216	0xbff4a1db96e72fd5	-1.289516057458049
217	0xbfedd154689648f9	-0.9318029444423522
218	0xc00d2b807e3a0105	-3.6462411748362933
219	0xbfe6bb7258960a6d	-0.7103816728779982
220	0x3fe37804d25a43ee	0.608400736660881
221	0x3fcaa314142486e0	0.20810175879983372
222	0xbff8ac7ee31804ca	-1.5421131964542831
223	0xbffc71ddb7a0ca95	-1.7777993367168723
224	0xbfcfdc9d8c82e3e0	-0.24892014847662747
225	0xc0025cd12965882c	-2.29532081929303
226	0x3ff1c518aa1bc979	1.1106192250122986
227	0xbfc1eedcd09bd018	-0.14010200677842088
228	0xbfea160c41f69220	-0.8151913917868718
229	0xbfe6da6ffc5dd6b2	-0.7141647271189042
230	0xbfc7cfe9ff83ba32	-0.1860325334195792
231	0xbfbe3a67fd68b4eb	-0.11807870804541991
232	0xbfd3d8a7fd12659a	-0.3100986453442488
233	0x3fed36e3fec171a1	0.9129505134292694
234	0x3fc4c3f29fc13f77	0.16222985077410687
235	0xbfefffca01f311d2	-0.9999742544246664
236	0xbff3613d29ad9c21	-1.2112399700215593
237	0x3fdb4f7bee62c2ca	0.4267263248430423
238	0x3fcc8236157aa435	0.22272373245985624
239	0x3fbd931d1b5737dd	0.11552602689263787
240	0x3ff8cdc9677fbdcd	1.5502409022263806
241	0xbfefab09dd8fab3e	-0.9896287276618307
242	0x3fdd1191516478fc	0.45419724415286544
243	0xbfe5f8baa7c95b11	-0.6866124417382214
244	0x3fcfbfaf3919c27f	0.24803724563709648
245	0xbfe276ad36e21aaa	-0.5769868919313315
246	0x3fec26e215cbe8f6	0.8797464776719426
247	0x3ff100536d0da554	1.062579561223477
248	0x3fd36f0c141bf5cb	0.30365278209486907
249	0x3fe04ff5eac9a08a	0.509760817117255
250	0xbfa88f7cd51f920c	-0.04796972371676497
251	0xbfd83503de9d5be5	-0.37823578586306744
252	0x3fd6cf93eb6456c9	0.35641954410071414
253	0x3fe28b266c8d27fc	0.5794860954422343
254	0xc001d51ab54fd449	-2.229054848192878
255	0x3f49ba413fd7fe08	0.0007851427650961704
