wandbcsv/ant_boxweight_test.npz (npz, 24470 bytes, 2 tensors)

x_diff f8 [3, 500]
00000000: 53d6 c1e0 6201 d73f 9e63 584b a184 ab3f
00000010: 4604 ca43 59b6 f1bf cc66 f70d c1c6 d13f
00000020: 9046 4afe 3382 b43f 7bef 7adf 8438 c5bf
00000030: cca2 4e70 f2ec d43f ea71 2de1 5f69 80bf
00000040: 6f65 fae2 ca93 f5bf 2619 e360 55f5 b3bf
00000050: 80d8 b525 f480 e43f 73f2 3777 01b0 e03f
00000060: 5863 5d7b 3c05 d3bf 41d8 40f5 c16b d43f
00000070: b491 0471 6e8b 08c0 ca88 6a3d 4260 b4bf
00000080: 2dd2 158f 87ca abbf 02ed aa18 b4a3 f5bf
00000090: 7a18 2990 5717 d23f f0f9 8ee7 2d8f c13f
000000a0: 9ea4 5d59 a034 00c0 e642 6f01 5c7f e7bf
000000b0: cedc 43e4 8305 f4bf 30cc fa57 f275 08c0
000000c0: e540 4ebf f5ee f1bf b508 8b96 2234 c13f
000000d0: bf33 b41f 7516 c93f 79ec fd8e 5764 d63f
000000e0: 4459 eafe df5b d03f 7039 15e5 cff1 ab3f
000000f0: 9aa1 9f2b 7be2 e7bf 3eba dda2 3406 c53f
00000100: 2eac f2e2 5a91 aebf ab18 3984 1717 d7bf
00000110: d1ee 37ff d491 b63f 4a8b 0972 3b54 01c0
00000120: 2811 33df cb7c d4bf 4692 db04 4a59 c33f
00000130: 56bd c180 e15e febf 3a0d 5268 5f30 e2bf
00000140: a4de d920 375d e03f d5f9 7d0f a00b e1bf
00000150: ff67 dc7e c2d9 db3f a511 2339 d422 f5bf
00000160: c2de e661 e93b d43f 5798 9883 7131 ba3f
00000170: c421 4b36 8abe e23f e9dc 19c1 35f7 c2bf
00000180: 3906 50d6 2aec 00c0 98f8 1735 75c7 e9bf
00000190: 28ef c675 2580 e9bf 39c2 64ee acb1 d13f
000001a0: c97c 32a4 9b56 0ac0 a75e e133 b9ea 0ac0
000001b0: 41af b3a3 7d8e e0bf c4fc fe5e cff2 dc3f
000001c0: 0887 f964 9e69 f13f bfde 36ad 1d3d e4bf
000001d0: 20cd cceb 10a2 f6bf 3b82 d0da e1c2 d83f
000001e0: fff6 45a1 44c9 cf3f 9c41 7d0b 47a2 f9bf
000001f0: 9b67 e8f2 6b77 ffbf 08d3 e29a 5152 eabf
00000200: 15ae 8f18 e7a1 d93f 0bbf 05c3 9891 b13f
00000210: b447 6c62 32fb ca3f a7ae 74a2 7186 06c0
00000220: d3b1 76cd 2f42 f4bf 57a4 871f 447d e33f
00000230: 07f4 0256 b145 b23f 6a9f 72d3 5773 e03f
00000240: a951 d59a 5989 febf a746 5abf 491a bc3f
00000250: 9cef 10ad ae87 c8bf 0211 92ca f16a d3bf
00000260: b083 ad60 c0bb f4bf 3b9f b4d2 9fe8 d33f
00000270: a6e6 8fe2 8c1c d8bf 3dd5 4cf7 8e9c debf
00000280: b8f6 793b 4433 e33f 10b9 3fb7 cc3e c73f
00000290: f383 3d25 26b7 b63f 7f86 79a4 ee0d 0ac0
000002a0: 4984 f22a c110 b63f 4305 67d1 0e98 b53f
000002b0: cae7 275c baee d73f 6ead 37a3 b601 11c0
000002c0: c7f5 30fd 98f4 f3bf 5721 248f cf04 d4bf
000002d0: 7f99 96a6 7c6e fdbf 29bd 32d4 8563 ba3f
000002e0: 5b9c fb9b 3b75 e0bf 78d4 e0a2 a4a9 df3f
000002f0: ed75 e721 76d9 fdbf 50f5 ce45 1026 84bf
00000300: e09b cd75 dbde cbbf 195f b500 2f13 f0bf
00000310: 46aa 14a3 79cd f03f 5e16 9fb8 6ca1 e4bf
00000320: 0b63 b838 e2b4 91bf 12c9 a8df b66b d6bf
00000330: 1c53 25dc 4055 e53f 605a 4828 bd2e f7bf
00000340: fdfb e979 df52 e7bf 3255 5c61 498c f4bf
00000350: f0bd 0e94 64ff efbf e610 bc9f f39d 11c0
00000360: 8e8e 9094 5dd1 8b3f e4b9 3ed4 e638 c0bf
00000370: ed61 5087 9aea d33f 432a ebc8 8258 febf
00000380: 96fd c2d0 f440 893f 3ae2 48d3 c797 09c0
00000390: 4e58 9ffc 3b5f be3f 1860 254c d09c f1bf
000003a0: 4082 b2ff 8cbc c93f 45ac 6235 b4f4 e4bf
000003b0: 6b76 db63 d5b6 b2bf 9e07 c44f 16fb bc3f
000003c0: 9b8f ecac e347 f3bf 031a 35f3 8b37 f7bf
000003d0: bf81 0e0e b7ed d83f b198 59cc f4d0 e23f
000003e0: 753a bc82 743a ed3f 4893 aa2c 8d02 b4bf
000003f0: 68df d0ab 6439 d7bf f2a1 70c7 a0ab c73f
00000400: 166a 1e30 ed32 d43f 82c5 e58f a597 b0bf
00000410: b48f 3cff e9ce de3f f7ca 5da6 08c5 d73f
00000420: b15c 55c1 626e d03f a997 b379 b215 903f
00000430: fa11 eab5 3ba0 da3f 4f46 d2ad b85d d83f
00000440: 3b92 d37e 24ac 06c0 bfff fce3 50fc c93f
00000450: ffca 276b bdf9 fdbf f56f df38 7226 b6bf
00000460: 4420 4c63 73ac c13f 9d38 2cba 23e1 d53f
00000470: 11ce de09 f04c c93f 98c6 9e6d e450 02c0
00000480: 22a5 6218 054d f0bf 4407 fa98 0e37 d4bf
00000490: 2fe4 5d6d 5f5a ebbf 9545 1117 4a86 fabf
000004a0: e9af 3b21 f6f6 dabf 6345 3287 06c9 c23f
000004b0: c836 4d37 ca3c e03f 3ad2 075f 2dd3 d5bf
000004c0: 9d10 c7a2 1d5b e5bf bfcc 8fa0 38bd d53f
000004d0: 2f9a 1517 7782 f3bf 4eef 5a58 9392 0cc0
000004e0: 78c2 28ba ec0e bfbf 2de3 9eee 0cbf c4bf
000004f0: d0f7 eddd f926 e3bf a9c5 539d 0098 febf
00000500: 473d 7891 9791 b73f 88d0 9a43 ffe6 8fbf
00000510: 3029 d6a9 fb8b b7bf 0766 442c 77df e7bf
00000520: 4e65 0041 0a50 e83f c6d0 adfe f9c7 ce3f
00000530: eaf9 14e4 4925 f2bf 1f99 b2d3 45ee c23f
00000540: f417 d755 99bb c83f 57b1 697d 92f3 e03f
00000550: 966f 08ea 2f3b 10c0 ba91 c744 558a f0bf
00000560: e5ec 19ee 5e19 c8bf c80e 4893 2e18 ffbf
00000570: cdf4 da98 9d82 d2bf e9c2 2e8f 4926 f6bf
00000580: e903 bd66 d622 b4bf 51e8 477d 8a19 12c0
00000590: 9644 bc62 0a5f 01c0 b8c6 6ef5 1b76 00c0
000005a0: dc9c 703d 465b e0bf b5ea 02d7 c824 d0bf
000005b0: 437e e7e8 48c2 a03f d042 10db 70ea e0bf
000005c0: dfd3 9c3c 16f2 afbf 1259 763c 0ae1 c23f
000005d0: ae8a 6edf d511 bd3f a371 4b32 d83f f5bf
000005e0: 49e3 ab45 0879 b63f b880 1909 9d2f f3bf
000005f0: c9b2 395b 39c7 f6bf 37da 45cc 03f6 c53f
00000600: 3fb5 ec71 ef2c eebf b4af de4c cf15 f2bf
00000610: 401f ade8 f267 b93f 9caa bd2b 48ea cb3f
00000620: 0835 45b1 bebc 08c0 03bf e497 5d98 ce3f
00000630: 82ab f968 6631 e6bf 57ae 875c 0f7c c13f
00000640: b2fc b1d4 343f d03f b7ea 5448 0eb5 bf3f
00000650: df0f ad25 eaf8 cd3f 09b1 7b47 113e de3f
00000660: 516e 903f d33f f9bf fcbd 9eb0 648c ae3f
00000670: f458 b3ec 66b8 b43f 6ad9 e7a8 8b25 a13f
00000680: b869 783e 9203 cf3f 35d5 d221 bfe7 03c0
00000690: 49e8 a29a 0feb c1bf 436e 2cb3 0334 ecbf
000006a0: 8976 fefc a87b e53f b0af 7b3f 7658 d03f
000006b0: b9ba 4d7d 6db9 02c0 3161 b590 c359 e4bf
000006c0: 8737 e756 8f31 fbbf 92df a165 38ae d1bf
000006d0: 62bf 3132 2052 cebf 304f 9ba3 c2b0 e2bf
000006e0: 0078 d651 6fd1 08c0 f317 21b7 815a babf
000006f0: cb6d 663e 6253 ecbf a2de 7a4f 6c34 b2bf
00000700: 721d d42d 319d fabf d2f6 1f17 6e41 c13f
00000710: 9cc3 8dd5 5bee f3bf deb3 c292 02ef f2bf
00000720: adda 32b9 a584 ac3f 93c1 7a40 c7ed c63f
00000730: d7de 06be 5b61 08c0 280a acae b84b bcbf
00000740: a2a4 f003 5640 ffbf 346d 80fc a152 d0bf
00000750: 3458 c444 e2d5 d13f a002 3247 4503 ce3f
00000760: 8b33 22aa 732d d3bf c885 bcba 88e7 05c0
00000770: 16f6 5ca4 8762 d23f 7dfb f2ee d523 a53f
00000780: 6471 06b0 dc62 fcbf a97d 6d28 eaf3 eabf
00000790: d52b 189d 2b1a fdbf bbfa ba0b e2b4 e9bf
000007a0: 7d4a 7cbd 9165 c43f 4197 6c2f 95e0 cdbf
000007b0: 7051 cff0 3fad b73f 9e3b 2eec 237d c43f
000007c0: f9c3 cdad e63f 09c0 0925 1651 43bd f4bf
000007d0: b480 40e0 d1ae d43f 0384 b7e7 9f74 a33f
000007e0: 8367 bb43 497a c53f 48d0 52d4 767f e73f
000007f0: 37c6 e6d9 5840 01c0 abc2 eac4 8f8e 06c0
0.3594596094984343 0.05374626202337328 -1.10701872329834 0.27775598873050167 0.08011174162154533 -0.1657873240673061 0.32696209876534676 -0.008013485965130369
-1.3485821596462662 -0.07796224227340484 0.6407414185075737 0.5214850738989995 -0.29719459578841656 0.3190770049144512 -3.0680817441481967 -0.07959379195611685
-0.0542795526661489 -1.3524666751462182 0.28267468527008754 0.13718198591773456 -2.025696466608294 -0.7342968013782325 -1.2513464848141669 -3.0575911401188236
-1.1208398316267048 0.13440353728043922 0.19599784896891312 0.34987439121295655 0.2556076039703792 0.054579254831525925 -0.7463966228506707 0.16425188019225517
-0.05970272083626359 -0.36078441536336453 0.08816272002143967 -2.166129008213294 -0.3201169662172725 0.15116238820259492 -1.8981642751276318 -0.5684048688421293
0.5113788262960566 -0.5326690962390851 0.4351660002590733 -1.3210031730569451 0.3161567169258711 0.10231694662852085 0.5857592640323266 -0.14816924980889404
-2.1153160803958397 -0.8055978810296152 -0.7968928623517728 0.2764694526731862 -3.292289049902682 -3.3646110585358033 -0.5173938939383121 0.45231994893033467
1.0882858223271246 -0.6324604399769312 -1.4145669184625334 0.3868946682796694 0.248329714533547 -1.602118534927377 -1.9666556824290413 -0.8225486779325317
0.4005067577224691 0.06862787972727007 0.21079091840561903 -2.8156464282854645 -1.2661588693546164 0.6090412727181825 0.07137592649355905 0.5140799646223801
-1.908532719438066 0.10977612420745207 -0.1916406960534659 -0.30340237409861015 -1.2958377624965856 0.3110732610389168 -0.37674257397848476 -0.47830557012942504
0.6000081216477247 0.18160399387074522 0.08873213204562073 -3.256802830656681 0.08619315432089637 0.08435146915782803 0.37394579887006485 -4.251673269532473
-1.247216214207002 -0.3127936265814432 -1.8394743449549364 0.10308109694118585 -0.5143106504955414 0.49472919374540636 -1.8655911754971115 -0.009838225489029157
-0.21773856403453262 -1.0046834972071734 1.050164830240321 -0.6447051626098064 -0.017291578971796045 -0.35032436219911844 0.6666569041941304 -1.4489108632602878
-0.7288663273938024 -1.2842496684218756 -0.9999258891820642 -4.404249664167059 0.013582926842054446 -0.12673650134588776 0.3111940690446591 -1.8966091011412949
0.012330925579930246 -3.1991116053216304 0.11864066045322483 -1.1007845854237583 0.20106661305637097 -0.6548710863766095 -0.07310231864854592 0.11320628592878143
-1.2050511126371706 -1.451061201123253 0.38950897572251714 0.588007353898112 0.9133856347487624 -0.078163932232724 -0.3628780057801948 0.1849251722171768
0.3156083078298776 -0.06481394541858346 0.48137903142400806 0.37140098807064653 0.2567374122640543 0.01570776813323219 0.4160298611170955 0.3807203004335848
-2.834053984481469 0.2030125725959788 -1.8734716592559264 -0.08652414215561051 0.13807527874473824 0.341866428193393 0.1976604507632236 -2.289498192222549
-1.0188036873390236 -0.3158604139244867 -0.8547818313665 -1.6577855015824288 -0.42132333035874453 0.14675981141457858 0.507420642863246 -0.3410142353089075
-0.6673725299119898 0.3396741455064322 -1.2193518544896838 -3.5715701010466665 -0.12132148308661239 -0.1620803990497505 -0.5985078177034158 -1.9121099610896215
0.09206530858522398 -0.01557731080115611 -0.0919797219886831 -0.7460285057633776 0.759770514446396 0.2404777997541087 -1.13410367102153 0.14789650761412873
0.1932250661031386 0.5297329377622572 -4.057799965634237 -1.0337727247907496 -0.18827425600088712 -1.9434037926848067 -0.2892221443870085 -1.3843474953720778
-0.07865657814274098 -4.524942357553372 -2.171406527872544 -2.0576705145293452 -0.5111418914792938 -0.2522451495857852 0.0327322754199 -0.5286182669243207
-0.062393851183891284 0.14749267532597138 0.1135533972251703 -1.3280870403897118 0.08778430653536619 -1.1991243701414032 -1.4236386836520742 0.17157027696858204
-0.9429852700319897 -1.1303246500710715 0.09924238377163608 0.21808721671853426 -3.0921605920071933 0.2390248290698694 -0.6935302782343202 0.13659851091448402
0.25385781069776236 0.12385644212637713 0.23415877189302045 0.47253829937723474 -1.578082321450797 0.05966486602789797 0.08093875197241457 0.03348957478367505
0.24229648638067913 -2.48815752434407 -0.13998599100688328 -0.8813494204982323 0.6713452283181179 0.25539928626562425 -2.340540865835774 -0.6359575105989618
-1.6995995897918605 -0.27625856328040144 -0.23688127947707033 -0.5840771861498748 -3.1022631066871327 -0.10294352265290722 -0.8851786822082713 -0.0711124128382559
-1.6633769788912471 0.13480926636832763 -1.2456930486625657 -1.1833520634493122 0.05569951902127932 0.17913141868986013 -3.0475382657858563 -0.11053041710332734
-1.9532070306688998 -0.2550435033642373 0.2786794349243593 0.23447481132827352 -0.2996491586171081 -2.738053759458783 0.2872637848957721 0.041289029520604516
-1.774136245344459 -0.8422747411349764 -1.8188892494679199 -0.8033304432973049 0.15934964897367712 -0.23341622176774915 0.09248733166834255 0.1600689795709202
-3.156201703874555 -1.2962067763749607 0.32317015552144857 0.03799915031027725 0.16779437834957997 0.7343095919554878 -2.1564194701720925 -2.8196101555007167

reward f8 [3, 500]
00000000: 0000 0060 6200 62c0 0000 0080 f712 62c0
00000010: 0000 00a0 b125 62c0 0000 0080 2ce0 61c0
00000020: 0000 0060 b70d 62c0 0000 0080 871b 62c0
00000030: 0000 0020 a401 62c0 0000 00c0 c41b 62c0
00000040: 0000 00c0 2524 62c0 0000 0000 211a 62c0
00000050: 0000 0020 7412 62c0 0000 0080 920f 62c0
00000060: 0000 0080 e72c 62c0 0000 0080 5410 62c0
00000070: 0000 0040 3224 62c0 0000 00c0 b0f6 61c0
00000080: 0000 0040 4dfb 61c0 0000 00c0 0124 62c0
00000090: 0000 0040 e013 62c0 0000 00e0 e8f7 61c0
000000a0: 0000 0000 e5ff 61c0 0000 0080 8df8 61c0
000000b0: 0000 0000 a707 62c0 0000 0080 53ec 61c0
000000c0: 0000 0040 e5ff 61c0 0000 0080 83d1 61c0
000000d0: 0000 0060 a4fd 61c0 0000 0060 baf6 61c0
000000e0: 0000 0040 371a 62c0 0000 0040 cddc 61c0
000000f0: 0000 0060 5e2c 62c0 0000 00e0 51c6 61c0
00000100: 0000 0020 090d 62c0 0000 0020 4a32 62c0
00000110: 0000 0000 f0d9 61c0 0000 00c0 1403 62c0
00000120: 0000 0080 0525 62c0 0000 0060 f2f4 61c0
00000130: 0000 00e0 2fea 61c0 0000 0000 74f0 61c0
00000140: 0000 0000 2c08 62c0 0000 00a0 6d32 62c0
00000150: 0000 0080 32f2 61c0 0000 0020 61a7 61c0
00000160: 0000 00e0 a719 62c0 0000 0000 b1d9 61c0
00000170: 0000 0080 f70d 62c0 0000 00e0 1ed7 61c0
00000180: 0000 00a0 9d24 62c0 0000 00e0 250d 62c0
00000190: 0000 0000 a5eb 61c0 0000 0080 4523 62c0
000001a0: 0000 0080 5f00 62c0 0000 0080 59fe 61c0
000001b0: 0000 00e0 49e3 61c0 0000 0080 22e6 61c0
000001c0: 0000 0080 1bf1 61c0 0000 0080 22e9 61c0
000001d0: 0000 00e0 b9ef 61c0 0000 0020 3006 62c0
000001e0: 0000 00e0 99b8 61c0 0000 0080 7504 62c0
000001f0: 0000 00e0 2ab3 61c0 0000 0040 580c 62c0
00000200: 0000 0080 d2bc 61c0 0000 00c0 d4db 61c0
00000210: 0000 0060 7ee9 61c0 0000 00a0 ffd2 61c0
00000220: 0000 0020 44d3 61c0 0000 0020 d923 62c0
00000230: 0000 00a0 81dc 61c0 0000 0080 4688 61c0
00000240: 0000 0040 bd01 62c0 0000 0080 e6f0 61c0
00000250: 0000 0080 b6c7 61c0 0000 0080 0dbf 61c0
00000260: 0000 00a0 9bc8 61c0 0000 00c0 a2ce 61c0
00000270: 0000 0020 599b 61c0 0000 00e0 33d4 61c0
00000280: 0000 0060 7af2 61c0 0000 0060 d3d3 61c0
00000290: 0000 00c0 84dc 61c0 0000 00e0 4fdf 61c0
000002a0: 0000 0020 11b0 61c0 0000 0080 e505 62c0
000002b0: 0000 00c0 cebf 61c0 0000 0080 de08 62c0
000002c0: 0000 0040 cdda 61c0 0000 00a0 35f6 61c0
000002d0: 0000 0020 d6b9 61c0 0000 0080 ebd2 61c0
000002e0: 0000 0080 089c 61c0 0000 0040 adc6 61c0
000002f0: 0000 00c0 02d4 61c0 0000 0000 6def 61c0
00000300: 0000 0040 c1cc 61c0 0000 00e0 54d3 61c0
00000310: 0000 0040 0dea 61c0 0000 00a0 ddcd 61c0
00000320: 0000 0080 e78a 61c0 0000 0080 dc6c 61c0
00000330: 0000 0080 45b3 61c0 0000 00a0 5daf 61c0
00000340: 0000 0060 7fad 61c0 0000 0000 149f 61c0
00000350: 0000 00a0 abc2 61c0 0000 00e0 f9dc 61c0
00000360: 0000 0080 62a1 61c0 0000 0000 779e 61c0
00000370: 0000 0060 a8d5 61c0 0000 0040 9fd8 61c0
00000380: 0000 0060 00bf 61c0 0000 0040 53b7 61c0
00000390: 0000 00a0 0baa 61c0 0000 0080 3edc 61c0
000003a0: 0000 0040 97c8 61c0 0000 00a0 55c4 61c0
000003b0: 0000 00a0 05ee 61c0 0000 00e0 7fb3 61c0
000003c0: 0000 00c0 357c 61c0 0000 0000 37aa 61c0
000003d0: 0000 0040 6b9b 61c0 0000 0000 f8d7 61c0
000003e0: 0000 0020 66d7 61c0 0000 00a0 eaf7 61c0
000003f0: 0000 0060 e39a 61c0 0000 0060 2bc5 61c0
00000400: 0000 00e0 0fac 61c0 0000 0000 1f91 61c0
00000410: 0000 0080 7e95 61c0 0000 0060 fce6 61c0
00000420: 0000 00c0 15b4 61c0 0000 0020 4c99 61c0
00000430: 0000 00c0 48bc 61c0 0000 0080 97b3 61c0
00000440: 0000 0080 78c3 61c0 0000 0040 af8c 61c0
00000450: 0000 00a0 8298 61c0 0000 00e0 4c89 61c0
00000460: 0000 0040 b77b 61c0 0000 0080 68a3 61c0
00000470: 0000 0080 0975 61c0 0000 0080 94ad 61c0
00000480: 0000 00a0 79d3 61c0 0000 0080 bc79 61c0
00000490: 0000 00c0 9aba 61c0 0000 00c0 68c2 61c0
000004a0: 0000 0080 a85c 61c0 0000 00e0 62e1 61c0
000004b0: 0000 00a0 f8aa 61c0 0000 0060 8f5d 61c0
000004c0: 0000 0080 0378 61c0 0000 00a0 88b2 61c0
000004d0: 0000 0040 2fbc 61c0 0000 00a0 078f 61c0
000004e0: 0000 0000 ddab 61c0 0000 00c0 7a92 61c0
000004f0: 0000 00e0 e3a4 61c0 0000 00a0 b5ad 61c0
00000500: 0000 0000 8f62 61c0 0000 0040 1b80 61c0
00000510: 0000 00e0 96db 61c0 0000 0060 708d 61c0
00000520: 0000 0000 ff83 61c0 0000 0040 6a83 61c0
00000530: 0000 00c0 9066 61c0 0000 0060 7a91 61c0
00000540: 0000 0080 3b87 61c0 0000 00a0 71b4 61c0
00000550: 0000 00e0 9e9a 61c0 0000 00c0 39a2 61c0
00000560: 0000 0060 4162 61c0 0000 00e0 d0a2 61c0
00000570: 0000 00a0 e791 61c0 0000 0020 b2c0 61c0
00000580: 0000 0080 a193 61c0 0000 00a0 f5d0 61c0
00000590: 0000 00c0 c65c 61c0 0000 00c0 6c72 61c0
000005a0: 0000 00e0 c377 61c0 0000 00e0 b29b 61c0
000005b0: 0000 00a0 279b 61c0 0000 00e0 fa78 61c0
000005c0: 0000 0000 4dbf 61c0 0000 0020 a74e 61c0
000005d0: 0000 00a0 afbc 61c0 0000 00c0 d45f 61c0
000005e0: 0000 00e0 3ea4 61c0 0000 0060 d133 61c0
000005f0: 0000 0040 7a54 61c0 0000 0040 5861 61c0
00000600: 0000 0040 5d76 61c0 0000 0000 353b 61c0
00000610: 0000 0040 e6b3 61c0 0000 00c0 1a3a 61c0
00000620: 0000 0000 d02e 61c0 0000 0060 4262 61c0
00000630: 0000 00e0 6d32 61c0 0000 0020 4c4b 61c0
00000640: 0000 00c0 5576 61c0 0000 0060 5ba8 61c0
00000650: 0000 00e0 0d33 61c0 0000 0060 b680 61c0
00000660: 0000 0000 0279 61c0 0000 0060 db62 61c0
00000670: 0000 0060 7856 61c0 0000 0040 4e17 61c0
00000680: 0000 0020 f645 61c0 0000 00c0 b643 61c0
00000690: 0000 00c0 b291 61c0 0000 0020 0664 61c0
000006a0: 0000 0020 5c33 61c0 0000 0060 54a5 61c0
000006b0: 0000 00e0 963a 61c0 0000 0080 b15b 61c0
000006c0: 0000 0040 ab73 61c0 0000 0000 017e 61c0
000006d0: 0000 00e0 fe35 61c0 0000 0000 c762 61c0
000006e0: 0000 00e0 0a74 61c0 0000 0040 3d77 61c0
000006f0: 0000 0020 3942 61c0 0000 0020 8f3f 61c0
00000700: 0000 0040 6b51 61c0 0000 00a0 e57a 61c0
00000710: 0000 0060 4349 61c0 0000 0040 b160 61c0
00000720: 0000 00c0 0457 61c0 0000 0000 294e 61c0
00000730: 0000 0020 5268 61c0 0000 0020 1c46 61c0
00000740: 0000 0060 4431 61c0 0000 0020 883f 61c0
00000750: 0000 00c0 4273 61c0 0000 0020 4053 61c0
00000760: 0000 0040 b246 61c0 0000 00a0 0348 61c0
00000770: 0000 0040 f532 61c0 0000 00e0 4259 61c0
00000780: 0000 0060 ff4f 61c0 0000 0080 db2a 61c0
00000790: 0000 00c0 ca66 61c0 0000 00e0 813d 61c0
000007a0: 0000 0060 8a6d 61c0 0000 0080 1a63 61c0
000007b0: 0000 0060 943d 61c0 0000 0020 d15b 61c0
000007c0: 0000 00a0 fc4c 61c0 0000 0080 b351 61c0
000007d0: 0000 0000 844b 61c0 0000 0060 9220 61c0
000007e0: 0000 0060 7c3e 61c0 0000 00e0 c533 61c0
000007f0: 0000 0040 c129 61c0 0000 0060 065b 61c0
-144.0120086669922 -144.59271240234375 -145.1779327392578 -143.00543212890625 -144.4286346435547 -144.86029052734375 -144.05128479003906 -144.86776733398438
-145.12960815429688 -144.8165283203125 -144.57667541503906 -144.48663330078125 -145.40325927734375 -144.51031494140625 -145.13113403320312 -143.70907592773438
-143.85317993164062 -145.12521362304688 -144.62112426757812 -143.74717712402344 -143.9967041015625 -143.76727294921875 -144.2391357421875 -143.38519287109375
-143.99673461914062 -142.54730224609375 -143.9263153076172 -143.7102508544922 -144.81924438476562 -142.90005493164062 -145.3865203857422 -142.19749450683594
-144.40736389160156 -145.57154846191406 -142.810546875 -144.09628295898438 -145.15692138671875 -143.6545867919922 -143.31834411621094 -143.51416015625
-144.25537109375 -145.5758819580078 -143.56866455078125 -141.23060607910156 -144.80174255371094 -142.8028564453125 -144.43646240234375 -142.72251892089844
-145.1442413330078 -144.41087341308594 -143.3638916015625 -145.10223388671875 -144.01165771484375 -143.94842529296875 -143.10276794433594 -143.19171142578125
-143.53460693359375 -143.28546142578125 -143.49143981933594 -144.19337463378906 -141.76878356933594 -144.13934326171875 -141.59898376464844 -144.38577270507812
-141.90069580078125 -142.86972045898438 -143.2966766357422 -142.5937042236328 -142.60206604003906 -145.12025451660156 -142.8908233642578 -140.25860595703125
-144.05435180664062 -143.52813720703125 -142.24102783203125 -141.97039794921875 -142.2689971923828 -142.45736694335938 -140.85462951660156 -142.63133239746094
-143.5774383544922 -142.6195526123047 -142.89120483398438 -142.97850036621094 -141.50209045410156 -144.18426513671875 -141.99398803710938 -144.27716064453125
-142.83755493164062 -143.6940460205078 -141.80738830566406 -142.59124755859375 -140.87603759765625 -142.20864868164062 -142.62533569335938 -143.4820556640625
-142.39859008789062 -142.60411071777344 -143.31411743164062 -142.4333038330078 -140.34075927734375 -139.40191650390625 -141.60223388671875 -141.4801788330078
-141.4217987060547 -140.97119140625 -142.0834503173828 -142.90550231933594 -141.04327392578125 -140.9520263671875 -142.6768035888672 -142.76943969726562
-141.9687957763672 -141.72891235351562 -141.3139190673828 -142.88262939453125 -142.26846313476562 -142.1354522705078 -143.4381866455078 -141.60935974121094
-139.88156127929688 -141.3192138671875 -140.85684204101562 -142.7490234375 -142.73121643066406 -143.7473907470703 -140.8402557373047 -142.1615447998047
-141.37693786621094 -140.5350341796875 -140.67169189453125 -143.2183074951172 -141.62765502929688 -140.79054260253906 -141.88388061523438 -141.61224365234375
-142.10845947265625 -140.39639282226562 -140.7659454345703 -140.29063415527344 -139.86611938476562 -141.10650634765625 -139.65740966796875 -141.42437744140625
-142.6085968017578 -139.80426025390625 -141.83139038085938 -142.07528686523438 -138.89556884765625 -143.04331970214844 -141.3428497314453 -138.9237518310547
-139.75042724609375 -141.5791778564453 -141.88076782226562 -140.4696807861328 -141.3707275390625 -140.57748413085938 -141.15281677246094 -141.4284210205078
-139.0799560546875 -140.00332641601562 -142.86216735839844 -140.4199676513672 -140.1248779296875 -140.10671997070312 -139.20516967773438 -140.5461883544922
-140.22601318359375 -141.6388702392578 -140.83189392089844 -141.06954956054688 -139.0704803466797 -141.08799743652344 -140.5595245361328 -142.02174377441406
-140.61346435546875 -142.5299835205078 -138.89926147460938 -139.57577514648438 -139.74266052246094 -140.86558532714844 -140.8485870361328 -139.78062438964844
-141.9781494140625 -138.45790100097656 -141.8964385986328 -138.99472045898438 -141.13267517089844 -137.6193084716797 -138.63992309570312 -139.04202270507812
-139.69888305664062 -137.8502197265625 -141.62185668945312 -137.81576538085938 -137.462890625 -139.0706024169922 -137.57591247558594 -138.35304260253906
-139.69796752929688 -141.2611541748047 -137.59544372558594 -140.0222625732422 -139.781494140625 -139.0892791748047 -138.7021942138672 -136.72830200195312
-138.18629455566406 -138.11605834960938 -140.55307006835938 -139.12574768066406 -137.60499572753906 -141.1665496826172 -137.83091735839844 -138.86541748046875
-139.61465454101562 -139.9376220703125 -137.68736267089844 -139.0867919921875 -139.62632751464844 -139.72622680664062 -138.06947326660156 -137.98622131347656
-138.54434204101562 -139.8405303955078 -138.2894744873047 -139.02163696289062 -138.71932983398438 -138.4425048828125 -139.26002502441406 -138.19093322753906
-137.5395965576172 -137.98536682128906 -139.60189819335938 -138.60157775878906 -138.20925903320312 -138.2504425048828 -137.59243774414062 -138.78941345214844
-138.4999237060547 -137.33929443359375 -139.21224975585938 -137.92210388183594 -139.4231414794922 -139.09698486328125 -137.9243621826172 -138.86927795410156
-138.4058380126953 -138.55316162109375 -138.35986328125 -137.0178680419922 -137.9526824951172 -137.61790466308594 -137.30484008789062 -138.8445281982422
